Assets/MLAgentModel/ZombieAgent.onnx (onnx, 574737 bytes, 15 tensors)

network_body.observation_encoder.processors.0.normalizer.running_mean f4 [34]
0.000108705426 0.4184661 0.00010515071 0.41939616 0.00010394352 0.417614 0.00010248366 0.42013457
9.147781e-05 0.41717318 0.00010364528 0.42054623 9.028808e-05 0.4173516 0.00010869654 0.42076015
8.731602e-05 0.4180928 0.00010158419 0.42087227 8.968248e-05 0.4190185 0.00010633156 0.42102745
9.652062e-05 0.4195092 0.00011197591 0.42132187 8.523308e-05 0.41941518 0.000113740585 0.42157346
9.089086e-05 0.4189351
00000000: c8f8 e338 3041 d63e 5c84 dc38 18bb d63e
00000010: 41fc d938 81d1 d53e 7fec d638 e11b d73e
00000020: c6d7 bf38 b997 d53e 235c d938 d651 d73e
00000030: 0b59 bd38 1caf d53e 03f4 e338 e06d d73e
00000040: 6e1d b738 4210 d63e 9909 d538 927c d73e
00000050: ea13 bc38 9889 d63e 52fe de38 e990 d73e
00000060: 1d6b ca38 e9c9 d63e 9cd4 ea38 80b7 d73e
00000070: 29bf b238 96bd d63e 0388 ee38 7ad8 d73e
00000080: a99c be38 a97e d63e

network_body.observation_encoder.processors.1.normalizer.running_mean f4 [3]
0.06313935 0.03558608 0.15944333
00000000: 344f 813d b6c2 113d 1d45 233e

network_body._body_endoder.seq_layers.0.weight f4 [256, 37]
-0.42443997 -0.19274984 -0.05123999 -0.10394474 -0.25437585 0.038654733 -0.051134724 0.13347602
-0.1255742 -0.1638067 0.09196451 0.14233862 0.12771408 0.2344462 -0.034729756 0.07202284
0.31824622 -0.13972141 0.012743788 0.10574487 0.008289592 -0.083653525 0.07958279 0.07554138
-0.2038804 -0.07667796 -0.08968983 -0.20938852 -0.21936412 -0.44247776 -0.09025438 -0.13870108
0.051873412 -0.2729939 0.2872869 0.289644 -0.26789626 -0.027395917 0.14436264 -0.16226855
-0.08055245 0.19517426 -0.08086798 0.16218643 0.014983664 -0.19598061 0.041166227 -0.099790126
-0.06144123 -0.0363798 0.018411715 0.021351263 -0.14278159 -0.04897277 -0.09881089 0.09885963
-0.09938556 -0.1093908 -0.013397099 -0.21457884 0.076546445 0.05914315 0.01945325 -0.11547139
0.06047002 0.30580056 -0.25408295 0.09464163 0.17614426 0.18385601 -0.29707402 -0.10714924
0.18348235 -0.015987981 -0.134496 0.004959506 0.08065986 0.076926924 -0.22552003 0.093374826
0.010185292 0.038698297 0.065225676 -0.15868789 0.058919642 -0.0947278 -0.19142596 -0.2532086
-0.028336383 -0.2171504 -0.24768457 0.023786053 0.15080301 -0.13837348 -0.19545652 0.22184786
0.09048432 0.18741295 -0.07071183 -0.06343246 -0.011660894 0.11676762 -0.20311558 -0.06354443
-0.28582552 -0.22660962 -0.3814507 -0.05599218 0.32532424 -0.005808386 0.1394526 -0.119281605
-0.18476506 0.17301272 0.10969567 -0.12021439 0.12687194 -0.14273074 0.021642517 0.040485024
-0.18989702 -0.12539205 -0.09042742 0.47833332 0.15250985 0.18499096 -0.4453646 0.10909135
-0.2894286 -0.10565687 -0.09769454 -0.008274849 -0.19410421 -0.2668815 0.15411828 -0.0006705802
0.3079315 0.05347297 0.0941111 0.04522263 -0.16080584 0.055719744 -0.080827 -0.16480461
0.009728962 0.021584006 0.14110124 -0.21332897 0.098290935 0.042568628 0.08847366 -0.45139232
0.4896207 0.1652174 0.0066248183 0.19565831 -0.08428325 0.048205625 0.07115115 -0.10192774
-0.013837233 -0.06604515 -0.1291139 -0.092576966 0.11568658 0.3075811 0.25667864 0.12386981
0.0058643892 -0.1297285 -0.20300247 -0.1710985 -0.015326721 -0.31213656 -0.21192355 0.28179508
-0.34768847 0.3529656 0.08292575 0.27272713 -0.07021556 -0.028476795 -0.19904687 0.14666517
0.12907788 -0.09912963 0.03779967 -0.4605382 -0.13613507 0.21840775 0.066894196 -0.0021711173
0.0044895066 -0.1995598 0.04535579 -0.023472397 0.09045194 0.09878009 -0.39658424 -0.10392166
-0.102169 0.13704683 0.026513776 0.06899111 -0.068565376 0.0655112 0.088283174 -0.004588539
-0.08597629 0.27245855 -0.08938881 -0.03700782 0.047628682 -0.2733182 0.17211148 -0.35292816
0.16560723 0.11819086 0.1563275 0.28446034 0.090589486 -0.23288155 -0.09497148 0.0020501146
0.008390556 -0.23715775 0.28935453 0.28087682 -0.010888072 0.12912829 -0.03887417 -0.256668
0.28575066 0.11004133 -0.083558336 -0.15157616 -0.011413278 0.030294402 -0.1143016 0.011136942
-0.13744602 0.14065872 -0.31147465 -0.38754275 0.016924871 -0.32908428 0.11245322 -0.068962425
-0.26868945 -0.23145774 0.07597971 -0.0017170076 0.24186923 -0.117588975 -0.4249241 -0.13903306
00000000: 3250 d9be 3760 45be 06e1 51bd fbe0 d4bd
00000010: 8d3d 82be 6d54 1e3d a572 51bd f0ad 083e
00000020: 8696 00be f2bc 27be e457 bc3d 37c1 113e
00000030: 7bc7 023e aa12 703e ca40 0ebd b680 933d
00000040: 2bf1 a23e 2113 0fbe 52cb 503c c490 d83d
00000050: 12d1 073c 8a52 abbd 4dfc a23d 70b5 9a3d
00000060: 06c6 50be 5609 9dbd 4daf b7bd f269 56be
00000070: fda0 60be 728c e2be 4ad7 b8bd a807 0ebe
00000080: 3779 543d dbc5 8bbe 4517 933e 384c 943e
00000090: b329 89be 676d e0bc cdd3 133e ba29 26be
000000a0: aff8 a4bd c3db 473e 1d9e a5bd 3314 263e
000000b0: 0b7e 753c 24af 48be eb9d 283d c45e ccbd
000000c0: cda9 7bbd fc02 15bd 2ad4 963c d8e8 ae3c
000000d0: 5635 12be ac97 48bd 5d5d cabd eb76 ca3d
000000e0: a88a cbbd 4908 e0bd 827f 5bbc 8eba 5bbe
000000f0: 62c4 9c3d 1640 723d 6c5c 9f3c 447c ecbd
00000100: 69af 773d e491 9c3e 2917 82be 79d3 c13d
00000110: 295f 343e c044 3c3e 161a 98be 1071 dbbd
00000120: cce2 3b3e 3af9 82bc 52b9 09be 5a83 a23b
00000130: ff30 a53d dd8b 9d3d b9ee 66be 4d3b bf3d
00000140: 36e0 263c 1b82 1e3d 0a95 853d 147f 22be
00000150: b955 713d a600 c2bd 2b05 44be 8fa4 81be
00000160: b421 e8bc ad5c 5ebe 06a1 7dbe f8da c23c
00000170: 1b6c 1a3e c7b1 0dbe c125 48be 162c 633e
00000180: d84f b93d 2ee9 3f3e 5dd1 90bd e1e8 81bd
00000190: 560d 3fbc dd23 ef3d 88fd 4fbe 9523 82bd
000001a0: b957 92be 5a0c 68be 824d c3be 0e58 65bd
000001b0: e690 a63e 4654 bebb aacc 0e3e ea49 f4bd
000001c0: 0d33 3dbe 3f2a 313e 20a8 e03d f632 f6bd
000001d0: b8ea 013e 0228 12be a64b b13c a0d3 253d
000001e0: 5d74 42be c666 00be 0332 b9bd 1be8 f43e
000001f0: 8b2b 1c3e 456e 3d3e d406 e4be 496b df3d
00000200: fc2f 94be a162 d8bd 1314 c8bd 3b93 07bc
00000210: 41c3 46be b1a4 88be 2fd1 1d3e e0c9 2fba
00000220: 33a9 9d3e 7906 5b3d 52bd c03d 5d3b 393d
00000230: 49aa 24be 633a 643d a088 a5bd 8ac2 28be
00000240: 3966 1f3c f1d0 b03c d87c 103e e972 5abe
00000250: c24c c93d 715c 2e3d ae31 b53d e51c e7be
00000260: 90af fa3e c02e 293e 0115 d93b a75a 483e
00000270: b29c acbd 4373 453d b2b7 913d 7ebf d0bd
00000280: 90b5 62bc ae42 87bd 6f36 04be fe98 bdbd
00000290: 16ed ec3d 457b 9d3e 626b 833e 74af fd3d
000002a0: 102a c03b 8cd7 04be e1df 4fbe 7234 2fbe
000002b0: ed1c 7bbc 5dd0 9fbe 7d02 59be 7247 903e
000002c0: 3904 b2be e8b7 b43e fad4 a93d e4a2 8b3e
000002d0: 2dcd 8fbd 2b48 e9bc f1d2 4bbe 652f 163e
000002e0: fe2c 043e 7a04 cbbd d4d3 1a3d aacb ebbe
000002f0: fe66 0bbe 48a6 5f3e d3ff 883d 4e49 0ebb
00000300: b61c 933b 6759 4cbe fec6 393d 2f49 c0bc
00000310: de3e b93d 374d ca3d 170d cbbe e1d4 d4bd
00000320: fb3d d1bd 0156 0c3e 6b33 d93c 364b 8d3d
00000330: 016c 8cbd bc2a 863d cfcd b43d 745b 96bb
00000340: 5614 b0bd b07f 8b3e 7b11 b7bd 8395 17bd
00000350: 4b16 433d 5df0 8bbe fe3d 303e 00b3 b4be
00000360: f194 293e 0d0e f23d 5114 203e c9a4 913e
00000370: fb86 b93d 8078 6ebe 6880 c2bd 375b 063b
00000380: 8b78 093c 7bd9 72be 4726 943e 16cf 8f3e
00000390: e263 32bc 353a 043e 863a 1fbd fd69 83be
000003a0: e94d 923e 595d e13d a220 abbd c836 1bbe
000003b0: c2fe 3abc f72b f83c f516 eabd b877 363c
000003c0: a6be 0cbe d708 103e 9b79 9fbe 016c c6be
000003d0: 07a6 8a3c bc7d a8be e04d e63d 2c3c 8dbd
000003e0: aa91 89be 4203 6dbe 409b 9b3d 370d e1ba
000003f0: 91ac 773e 7dd2 f0bd a78f d9be af5e 0ebe

network_body._body_endoder.seq_layers.0.bias f4 [256]
0.029015189 -0.018221624 0.026891286 -0.032423656 0.021355204 0.027874166 0.017486192 -0.026332377
0.031627312 0.03427911 -0.033868738 0.008961029 0.022067232 -0.014554434 0.008854308 0.024152465
0.0038964916 -0.00076002744 -0.014069069 0.0033550165 0.004651435 0.015228722 -0.01269826 -0.02594443
0.013040911 0.015040239 0.012977657 0.024140617 0.029860482 0.0043391865 0.027250135 -0.004083584
0.015980802 -0.013650526 0.025055284 0.011084502 0.022485666 0.024799358 0.019695375 0.035163533
0.027226241 -0.02789766 0.038448326 0.047564667 0.027637437 0.009733659 0.015870623 0.024925347
-0.010697226 0.011205161 -0.049106557 0.0060918657 0.018111525 -0.029007483 0.04889519 0.036792066
0.0022651989 0.011942828 -0.0066910107 -0.023167161 -0.024300642 0.020559452 0.011823008 -0.03422315
-0.007980071 0.0063356734 0.04566392 -0.0056534316 -0.04615272 0.020790892 -0.022374349 -0.036343567
0.01597799 0.021553954 0.023865676 0.0037570295 0.008546505 -0.006608965 -0.0014874162 0.028281251
0.023829533 0.021082807 0.029029043 -0.030261723 -0.00015098628 0.027100408 -0.018254334 0.005395016
0.034103766 -0.02591664 -0.043792367 0.009842326 -0.027651342 -0.031800896 0.015293521 -0.012733976
0.0018620036 0.03031572 0.0077959504 0.0050569703 -0.022228586 -0.04443121 0.037015013 -0.0055684014
-0.049365968 0.01616014 -0.083280034 -0.03560503 0.020966988 -0.004526179 -0.042329133 0.014278046
0.015877683 0.024638293 0.031951662 -0.030156527 0.009297216 0.03486572 0.04103872 0.025746202
-0.027750619 0.010419622 0.025008993 0.010033821 -0.020230917 -0.022897443 0.03175253 0.0106675085
0.045164883 0.02035418 -0.00919113 -0.021700026 0.0006646205 -0.024321724 0.009510807 0.00975483
0.009213601 -0.020699581 -0.006105623 0.014574002 0.008203831 -0.039307315 0.0066284947 -0.0057143643
0.02146967 -0.0048754616 -0.015710842 0.03693795 0.017286727 0.033977337 0.015466966 -0.011868038
0.01495545 -0.023040786 0.0213855 -0.009381298 0.014358813 0.017295472 -0.030079996 0.010066026
0.0011945496 -0.00086222304 0.014482084 -0.027304288 0.04156716 0.016574446 0.026817216 0.0032504916
0.034637395 -0.0199423 0.022334965 0.023204254 -0.004892366 -0.0015718797 -0.026316535 -0.008830067
-0.013918634 -0.022411812 0.03181561 0.018453633 0.026763124 -0.0009487527 -0.013227865 0.047458403
0.0067872535 0.012903313 0.026329426 0.013984179 0.0014347179 -0.016079271 0.000853131 0.03088154
-0.014329498 0.025533343 0.03418564 -0.02736131 0.03205325 0.00078218145 0.021967722 0.0023609689
0.044484504 0.016325314 -0.01006774 -0.033649076 -0.009323045 -0.0062205573 0.022629144 -0.0049973996
0.021658191 0.030106163 0.045092035 0.020864287 -0.022501038 0.02190082 0.0014334215 0.021892533
0.00042536305 0.026493495 -0.030814828 -0.028452817 0.021742895 0.003076365 0.020159379 0.005622081
0.02841911 0.027932731 -0.004004246 0.02026134 0.007581909 0.0013711101 -0.0024415401 -0.009359562
-0.0021135656 -0.01693142 0.010268173 0.021009786 -0.012878992 -0.02754285 -0.033734158 -0.03717798
-0.007886994 -0.0024547782 -0.01012725 -0.010111982 0.028486514 0.04602347 -0.0054545696 -0.024275588
-0.024979005 0.030698732 -0.0025331439 0.017062197 0.02329865 0.012316119 0.0025724724 -0.011618873
00000000: 43b1 ed3c 8445 95bc 1d4b dc3c abce 04bd
00000010: 1cf1 ae3c 5d58 e43c 343f 8f3c ffb6 d7bc
00000020: a48b 013d 4168 0c3d f2b9 0abd 48d1 123c
00000030: 57c6 b43c b975 6ebc a911 113c 64db c53c
00000040: 485c 7f3b 943c 47ba f481 66bc d6df 5b3b
00000050: 116b 983b e481 793c 5d0c 50bc 6a89 d4bc
00000060: 8ca9 553c 566b 763c 3da0 543c 8bc2 c53c
00000070: f89d f43c bc2f 8e3b ad3b df3c 96cf 85bb
00000080: 2cea 823c 75a6 5fbc bd40 cd3c c59b 353c
00000090: dc33 b83c 0628 cb3c 3258 a13c a307 103d
000000a0: 9109 df3c a289 e4bc fe7b 1d3d 2bd3 423d
000000b0: e867 e23c ed79 1f3c 1c03 823c 3e30 cc3c
000000c0: 6b43 2fbc da95 373c f523 49bd 469e c73b
000000d0: 9f5e 943c 1aa1 edbc 5346 483d 47b3 163d
000000e0: bb73 143b daab 433c 4440 dbbb 0fc9 bdbc
000000f0: 2412 c7bc 4c6c a83c 4ab5 413c 932d 0cbd
00000100: d8be 02bc 7b9b cf3b 170a 3b3d 6c40 b9bb
00000110: a20a 3dbd a951 aa3c 694a b7bc fedc 14bd
00000120: 46e4 823c eb91 b03c f381 c33c 7f38 763b
00000130: a406 0c3c 0490 d8bb 68f5 c2ba 15ae e73c
00000140: 2736 c33c dab5 ac3c 51ce ed3c 6fe7 f7bc
00000150: 1252 1eb9 ad01 de3c 1d8a 95bc adc8 b03b
00000160: 64b0 0b3d 224f d4bc a05f 33bd b541 213c
00000170: 1185 e2bc a841 02bd ad91 7a3c 2ba2 50bc
00000180: 790e f43a ac58 f83c 2c75 ff3b f1b4 a53b
00000190: b918 b6bc 80fd 35bd 0e9d 173d 2377 b6bb
000001a0: f833 4abd 4562 843c b98e aabd 94d6 11bd
000001b0: f6c2 ab3c 5750 94bb 5061 2dbd 77ee 693c
000001c0: ea11 823c 3fd6 c93c bfdf 023d d20a f7bc
000001d0: 5a53 183c 5bcf 0e3d 3818 283d b3e9 d23c
000001e0: 4455 e3bc 10b7 2a3c a9df cc3c e564 243c
000001f0: 4fbb a5bc 6b93 bbbc f10e 023d c6c6 2e3c
00000200: d0fe 383d cfbd a63c 6596 16bc 41c4 b1bc
00000210: ed39 2e3a 5a3e c7bc 37d3 1b3c b9d2 1f3c
00000220: a5f4 163c 2b92 a9bc ae11 c8bb cbc7 6e3c
00000230: 5c69 063c b500 21bd d833 d93b 903f bbbb
00000240: 29e1 af3c 56c2 9fbb 06b4 80bc 3f4c 173d
00000250: e59c 8d3c d22b 0b3d 2869 7d3c 2972 42bc
00000260: b407 753c 08c0 bcbc a530 af3c 04b4 19bc
00000270: 3a41 6b3c 3caf 8d3c 536a f6bc f9eb 243c
00000280: 6f92 9c3a cf06 62ba 4346 6d3c 3ead dfbc
00000290: 5442 2a3d 22c7 873c c7af db3c 3306 553b
000002a0: f1df 0d3d 095e a3bc d1f7 b63c d916 be3c
000002b0: 2450 a0bb 8807 ceba c695 d7bc fcab 10bc
000002c0: fb0a 64bc fa98 b7bc 1651 023d 132c 973c
000002d0: 573e db3c b7b5 78ba b0b9 58bc be63 423d
000002e0: 9c67 de3b 6b68 533c cfb0 d73c e61d 653c
000002f0: 250d bc3a adb8 83bc a7a4 5f3a 49fb fc3c
00000300: 45c6 6abc 4d2b d13c 3e06 0c3d d324 e0bc
00000310: 454a 033d 4f0b 4d3a a7f5 b33c 7cba 1a3b
00000320: 6235 363d aabc 853c 2af3 24bc 9dd3 09bd
00000330: afbf 18bc d1d5 cbbb c160 b93c 3ac1 a3bb
00000340: 856c b13c 33a1 f63c 6db2 383d 95eb aa3c
00000350: 1954 b8bc 5969 b33c a5e1 bb3a f857 b33c
00000360: 4303 df39 e308 d93c 616f fcbc e215 e9bc
00000370: 281e b23c d79c 493b 4825 a53c 6f39 b83b
00000380: 32cf e83c 2fd3 e43c 0d36 83bb 1cfb a53c
00000390: aa71 f83b d2b6 b33a 3f02 20bb d958 19bc
000003a0: bf83 0abb c3b3 8abc d73b 283c b71c ac3c
000003b0: 6802 53bc 8ba1 e1bc d42c 0abd f047 18bd
000003c0: 7338 01bc 58e0 20bb c4ec 25bc baac 25bc
000003d0: 8d5c e93c 1b83 3c3d 3fbc b2bb 99dd c6bc
000003e0: c5a0 ccbc e87b fb3c 1a03 26bb 05c6 8b3c
000003f0: cfdc be3c 8cc9 493c ed96 283b 165d 3ebc

network_body._body_endoder.seq_layers.2.weight f4 [256, 256]
0.024133233 -0.010770538 0.039493084 0.046513088 -0.010121037 -0.12172439 0.007875283 0.006101245
-0.06962825 0.033407558 0.05151749 -0.10831735 0.08554295 0.009354018 0.04295322 0.075219855
-0.04846294 0.026674705 -0.008102496 0.042866673 -0.04596363 0.046457823 -0.011165127 0.043152325
0.02905938 0.09321131 0.04104487 -0.1181858 -0.026567103 0.02999456 -0.010791724 -0.021964243
0.04260175 -0.065359116 0.08037058 0.016205063 0.04543679 -0.05292857 0.0147479 -0.015314634
-0.01350217 -0.015275147 -0.026286095 -0.027184825 0.19590728 -0.07705396 0.082705334 0.020869631
0.022306986 -0.06315998 0.072010234 0.06775764 0.03838344 0.015834855 -0.0019177129 -0.041390616
-0.00037948473 0.006647742 0.02973442 0.047314353 -0.012939028 0.0380638 0.09897833 0.078794666
-0.03719781 -0.13744639 -0.067379504 0.010502301 -0.06755616 -0.012791966 0.02890033 0.0087095555
-0.020151455 -0.016635573 -0.011715976 -0.042920932 0.10221489 0.120697916 -0.016820116 0.02954998
-0.040253203 0.08912933 0.0024699308 0.08359894 0.0068720146 0.08977168 0.04009991 0.043185767
-0.20774686 0.10464539 0.063324824 -0.12655024 0.059897825 0.012595089 0.08295108 -0.107617736
-0.09126391 0.04409435 0.090726 -0.008564079 -0.057594534 0.039044008 0.08046677 0.06257063
0.06774313 0.06620766 -0.055818062 0.057594635 0.056132138 -0.042797364 0.039613545 0.05000627
0.023138057 0.06834282 -0.01333319 -0.06723983 0.0605289 -0.04299736 0.06322391 0.04446502
-0.08993172 -0.039485615 -0.023965316 -0.05209044 -0.09581005 -0.019058067 -0.07527284 0.04529978
-0.1047016 0.07787551 -0.027203297 -0.012490956 0.04479862 0.06564944 0.1348303 0.057707444
-0.10492231 0.045581527 -0.038386628 0.06681997 0.04013952 -0.046252135 0.037192706 0.048467856
0.059594713 -0.021807628 -0.04178735 0.010886367 -0.023633432 -0.029199021 -0.03675534 -0.12701054
-0.010593786 0.05989083 -0.059892133 -0.079722084 -0.07537697 0.023164222 -0.07828523 0.03408081
-0.07346249 0.030659068 -0.022398526 -0.012008266 0.036421053 0.10110977 0.041640338 0.050006326
-0.16680342 0.023987431 -0.0888549 -0.036086023 0.027536638 0.07064251 0.034345347 -0.024034737
0.022696938 -0.023644833 -0.08484682 -0.027124055 0.08117628 0.04687053 0.087582454 -0.13617565
0.0970903 0.13190483 -0.13129722 -0.027020795 -0.07923032 0.011591499 0.16861068 0.07255997
0.04181463 -0.059017707 0.044257026 -0.058878265 -0.06801596 0.009290749 -0.15004012 -0.06206579
0.06237501 0.006501225 -0.019846004 -0.008102977 -0.00014728674 0.039116163 -0.0030519706 -0.113720216
-0.12598866 -0.020736149 0.036100104 -0.12033892 0.01771278 -0.08588601 0.030940026 -0.048747696
-0.09524915 -0.06816916 -0.11765326 0.08261864 0.085779056 -0.07603319 0.08061031 -0.08115265
0.003190781 -0.11480722 0.1072965 -0.020660173 -0.088969566 0.02291085 -0.050847527 -0.07915595
-0.026288802 -0.12727219 0.026959801 -0.016534086 -0.0009548921 -0.025293754 -0.02713498 0.068911105
0.058425352 0.09605952 -0.0070578614 0.07925352 -0.092035554 0.041743148 0.010647801 -0.03306806
-0.026097216 0.034511924 0.1021394 0.021053944 -0.056625735 0.08547223 0.19107473 -0.049003217
00000000: 0fb3 c53c e976 30bc 80c3 213d 8284 3e3d
00000010: b5d2 25bc a34a f9bd 5507 013c f4ec c73b
00000020: 4299 8ebd 5dd6 083d 0104 533d 7dd5 ddbd
00000030: 2431 af3d 9841 193c b7ef 2f3d de0c 9a3d
00000040: 1381 46bd e984 da3c 55c0 04bc f794 2f3d
00000050: 5c44 3cbd 8f4a 3e3d f0ed 36bc 7ec0 303d
00000060: f00d ee3c 92e5 be3d aa1e 283d 660b f2bd
00000070: 41a3 d9bc 27b7 f53c c5cf 30bc 5bee b3bc
00000080: 2c7f 2e3d 00db 85bd 5599 a43d 7bc0 843c
00000090: ed1b 3a3d a1cb 58bd 2da1 713c 3bea 7abc
000000a0: 3538 5dbc 9c44 7abc f055 d7bc b6b2 debc
000000b0: eb9b 483e 77ce 9dbd 6a61 a93d caf6 aa3c
000000c0: 24bd b63c 055a 81bd 1a7a 933d 84c4 8a3d
000000d0: f437 1d3d 19b8 813c c45b fbba 3589 29bd
000000e0: 94f5 c6b9 4dd5 d93b 9995 f33c b2cc 413d
000000f0: 38fe 53bc cae8 1b3d 27b5 ca3d 195f a13d
00000100: bb5c 18bd bfbe 0cbe 44fe 89bd d811 2c3c
00000110: e25a 8abd 6595 51bc 63c0 ec3c 86b2 0e3c
00000120: aa14 a5bc 5347 88bc 5df4 3fbc dccd 2fbd
00000130: 0a56 d13d 7830 f73d 57ca 89bc cd12 f23c
00000140: 8be0 24bd 7089 b63d 90de 213b ec35 ab3d
00000150: a32e e13b 37da b73d ce3f 243d 8fe3 303d
00000160: 98bb 54be 5250 d63d 72b0 813d 6396 01be
00000170: 6c57 753d a25b 4e3c 41e2 a93d b066 dcbd
00000180: 93e8 babd 479c 343d 8ece b93d 5a50 0cbc
00000190: 3fe8 6bbd 9cec 1f3d c3cb a43d 0825 803d
000001a0: e9bc 8a3d e297 873d 7ba1 64bd 5ae8 6b3d
000001b0: d0ea 653d 4a4c 2fbd d041 223d 60d3 4c3d
000001c0: 068c bd3c 52f7 8b3d 7473 5abc 09b5 89bd
000001d0: 27ed 773d 001e 30bd 8a7b 813d f420 363d
000001e0: 1f2e b8bd abbb 21bd e952 c4bc c95c 55bd
000001f0: 0f38 c4bd aa1f 9cbc a628 9abd 438c 393d
00000200: cb6d d6bd 327d 9f3d 73d9 debc dea6 4cbc
00000210: c27e 373d 3773 863d f410 0a3e a45e 6c3d
00000220: 82e1 d6bd b2b3 3a3d 4c3b 1dbd e9d8 883d
00000230: 5669 243d e172 3dbd 6157 183d 3b86 463d
00000240: 9619 743d e9a5 b2bc 3629 2bbd bc5c 323c
00000250: e69a c1bc c932 efbc c48c 16bd 0d0f 02be
00000260: 8f91 2dbc 1650 753d 7451 75bd 5545 a3bd
00000270: 3e5f 9abd e5c2 bd3c 0254 a0bd 5298 0b3d
00000280: 8173 96bd ba28 fb3c 1d7d b7bc 51be 44bc
00000290: 3e2e 153d a412 cf3d 0f8f 2a3d 6fd3 4c3d
000002a0: 84ce 2abe 4a81 c43c 8ff9 b5bd f0ce 13bd
000002b0: 8494 e13c 05ad 903d b5ad 0c3d 7fe4 c4bc
000002c0: eeee b93c cfb2 c1bc 2bc4 adbd 4433 debc
000002d0: c03f a63d 50fb 3f3d 6e5e b33d a171 0bbe
000002e0: 47d7 c63d 0f12 073e c772 06be b75a ddbc
000002f0: 8243 a2bd 45ea 3d3c 47a8 2c3e 529a 943d
00000300: d145 2b3d 8dbc 71bd db46 353d 562a 71bd
00000310: f44b 8bbd 3a38 183c 1ea4 19be b338 7ebd
00000320: f07c 7f3d 3a08 d53b 1694 a2bc 59c2 04bc
00000330: fc70 1ab9 4538 203d 9203 48bb 25e6 e8bd
00000340: 2c03 01be dbde a9bc b4dd 133d 4074 f6bd
00000350: 641a 913c 01e5 afbd f075 fd3c aaab 47bd
00000360: fd11 c3bd 469c 8bbd 31f4 f0bd f633 a93d
00000370: eeac af3d 4ab7 9bbd 0517 a53d 5c33 a6bd
00000380: 6c1c 513b 0c20 ebbd 44be db3d 863f a9bc
00000390: ad35 b6bd 89af bb3c 7f45 50bd 841c a2bd
000003a0: 9d5b d7bc a453 02be cdda dc3c 7e72 87bc
000003b0: b951 7aba d934 cfbc 2d4a debc 4421 8d3d
000003c0: 6c4f 6f3d dbba c43d a245 e7bb ab4f a23d
000003d0: 237d bcbd ddfa 2a3d 1d74 2e3c 6072 07bd
000003e0: d4c9 d5bc 605c 0d3d 762e d13d 5279 ac3c
000003f0: 63f0 67bd 110c af3d 18a9 433e 99b7 48bd

network_body._body_endoder.seq_layers.2.bias f4 [256]
-0.00818171 0.006814791 0.01752996 -0.041954786 0.004084258 -0.001048569 0.01786012 0.020687362
0.004635639 0.0042447927 -0.002681083 0.004195342 0.020785017 -0.0012776268 0.004836533 0.010002896
-0.020845667 0.0077035716 0.020439649 -0.0070820544 -0.022711407 0.005500013 -0.007888565 0.00073158235
0.04263827 0.016774908 0.012707482 0.005650426 0.007535031 -0.013886719 0.035544507 -0.012211207
0.012357078 0.0005840865 0.0035230638 0.028017497 0.015911862 0.0033506192 0.008831317 0.005832816
-0.03235955 -0.029565461 0.027852803 -0.012480002 -0.010394071 0.023177147 0.004174923 -0.0005577594
0.021998396 0.007639836 -0.005964462 0.018260883 0.021624831 -0.04546282 -0.014575558 0.008248905
0.013516112 0.005329404 -0.001384423 0.02505933 -0.012965477 0.014786126 -0.017832678 0.0125241475
0.02397776 0.019934712 0.012773441 0.0014320962 -0.043286152 0.006336597 0.007965245 -0.008353502
0.0071028033 0.017347466 -0.026740568 0.01033764 0.021693524 0.0070488486 -0.031726487 0.009300357
-0.010165948 0.012277893 0.014266698 0.026465988 0.021065367 -0.016211078 0.011408038 -0.0050365473
0.00015812693 0.012917965 0.01149266 0.02179409 -0.013832671 -0.0062114135 0.016418338 0.018192556
-0.00934226 -0.018844573 -0.011598381 0.020565407 -0.009359106 -0.0010433067 0.0029175165 0.009234581
0.00956542 0.02797818 0.021836115 0.007529888 -0.011253633 0.011630821 0.008585216 0.006661398
0.019166915 0.013708343 -0.014136709 -0.019214641 0.018766735 -0.0013657864 -0.03065353 0.015797872
-0.01106426 0.0035277584 -0.0022970275 -0.001468456 0.00044864244 0.019412402 -0.009002518 0.00983538
0.016690986 0.008253799 0.006693829 -0.0072732065 0.018385042 -0.045085903 0.020530604 0.04185278
0.024501994 0.03737625 0.019186143 -0.004605216 0.017647365 0.0058349376 -0.008553933 -0.0052691074
-0.020499595 0.021079957 -0.0020400316 -0.0033214446 0.011635818 -0.018958626 -0.012340487 -0.010729292
0.0077892323 0.019941224 -0.008370946 0.0045426437 0.009108891 0.009511772 0.0040625012 -0.013225916
-0.00970376 -0.011054074 0.015706114 -0.00028714526 0.0039269184 0.0037037528 -0.0071885097 0.00450564
0.018458372 -4.651271e-05 0.008792152 0.008284412 0.002362741 0.019213378 0.011779099 -0.001142139
-0.0014854011 0.004499074 0.007923276 0.02151455 -0.00499515 0.009190924 0.0021766736 0.011200467
0.029424109 0.04215982 0.000993685 -0.005857343 0.014565365 -0.007988769 0.018461209 0.0026202654
0.019899175 0.013618792 0.008826266 0.026578195 0.005684729 -0.004600133 -0.000317848 -0.029206533
-0.0034899176 -0.0067423536 0.0062724953 -0.005511401 0.048680108 -0.002636743 0.0017127449 0.023441425
0.009054469 0.020873832 0.012600609 -0.0039636516 0.009695672 -0.0059897257 -0.00072378805 0.020734329
-0.007712203 -0.010312241 0.036941994 -0.011859591 0.04933812 -0.00039832128 -0.014899358 0.004377011
-0.038513944 -0.012137669 -0.03924969 -0.01920766 0.0056281043 -0.01696601 -0.0125165675 0.028916465
-0.007457178 0.020624405 0.013801812 0.023387058 -0.0025025315 0.02864358 0.00617876 0.00420009
-0.0067912433 -0.03286211 0.0034672606 -0.0008107645 -0.015867999 -0.00588084 -0.0072851093 0.01621323
-0.0026631965 0.01483538 -0.03186708 -0.011232824 0.010522075 -0.014044918 0.0012506744 0.004918937
00000000: 940c 06bc 9c4e df3b fe9a 8f3c c8d8 2bbd
00000010: 3dd5 853b 2370 89ba 634f 923c 8b78 a93c
00000020: 8fe6 973b e717 8b3b 1cb5 2fbb 1479 893b
00000030: 5745 aa3c 0b76 a7ba c87b 9e3b 30e3 233c
00000040: 88c4 aabc 3e6e fc3b 0d71 a73c 9410 e8bb
00000050: 460d babc 7439 b43b 0a3f 01bc a9c7 3f3a
00000060: 77a5 2e3d 886b 893c 0b33 503c 3527 b93b
00000070: 6ce8 f63b 1f85 63bc 1e97 113d 8411 48bc
00000080: 5775 4a3c 621d 193a 34e3 663b f384 e53c
00000090: 9859 823c 1096 5b3b 3ab1 103c 3521 bf3b
000000a0: 738b 04bd 4433 f2bc 902b e43c ec78 4cbc
000000b0: e54b 2abc 00de bd3c cbcd 883b 9a36 12ba
000000c0: fb35 b43c 9757 fa3b 8971 c3bb d997 953c
000000d0: 8f26 b13c 3937 3abd 52ce 6ebc 6a26 073c
000000e0: af72 5d3c 48a2 ae3b 8775 b5ba 3949 cd3c
000000f0: 276d 54bc 8241 723c d615 92bc 1532 4d3c
00000100: 026d c43c 1f4e a33c b247 513c 2db5 bb3a
00000110: d24c 31bd 3aa3 cf3b a980 023c 20dd 08bc
00000120: a2be e83b 461c 8e3c 090f dbbc 345f 293c
00000130: 9eb6 b13c 07fa e63b a2f3 01bd 8660 183c
00000140: 148f 26bc 3729 493c debe 693c 33cf d83c
00000150: 4791 ac3c 18cd 84bc c8e8 3a3c 9f09 a5bb
00000160: e0ce 2539 dfa5 533c b64b 3c3c 8589 b23c
00000170: 6da2 62bc 1d89 cbbb c07f 863c 8e08 953c
00000180: 4710 19bc ef5f 9abc 2307 3ebc c978 a83c
00000190: f056 19bc 90bf 88ba ce33 3f3b a44c 173c
000001a0: 48b8 1c3c 7f32 e53c a7e1 b23c 47bd f63b
000001b0: 2861 38bc 338f 3e3c 01a9 0c3c db47 da3b
000001c0: ef03 9d3c f598 603c a89d 67bc 0668 9dbc
000001d0: b2bc 993c 3004 b3ba 1d1d fbbc 8a6a 813c
000001e0: df46 35bc f731 673b ba89 16bb 3579 c0ba
000001f0: c537 eb39 c206 9f3c 4c7f 13bc 9324 213c
00000200: 89bb 883c f13a 073c e857 db3b 1454 eebb
00000210: 3a9c 963c ffab 38bd cc2f a83c d26d 2b3d
00000220: 68b8 c83c d717 193d 422c 9d3c 5ae7 96bb
00000230: 3591 903c 0133 bf3b cc25 0cbc 7aa8 acbb
00000240: c4ee a7bc e0af ac3c 0db2 05bb 98ac 59bb
00000250: 28a4 3e3c 1f4f 9bbc c12f 4abc eac9 2fbc
00000260: d13c ff3b c75b a33c 4b26 09bc 75da 943b
00000270: 753d 153c 43d7 1b3c bb1e 853b 83b1 58bc
00000280: 85fc 1ebc 261c 35bc 1caa 803c fc8b 96b9
00000290: 61ad 803b a9ba 723b 978d ebbb 0ca4 933b
000002a0: 0336 973c a416 43b8 f50c 103c 58bb 073c
000002b0: 37d8 1a3b 6065 9d3c 1ffd 403c d3b3 95ba
000002c0: cab1 c2ba f86c 933b a1d0 013c 483f b03c
000002d0: 5bae a3bb 8895 163c 86a6 0e3b 2a82 373c
000002e0: d40a f13c c7af 2c3d 893e 823a f4ee bfbb
000002f0: 92a3 6e3c 53e3 02bc f63b 973c c2b8 2b3b
00000300: 9803 a33c 5b21 5f3c 0b9c 103c 84ba d93c
00000310: f746 ba3b b6bc 96bb d6a4 a6b9 8a42 efbc
00000320: 1ab7 64bb f6ee dcbb 8189 cd3b fc98 b4bb
00000330: cb64 473d 35cd 2cbb 2f7e e03a 3b08 c03c
00000340: 3259 143c 99ff aa3c c972 4e3c 85e1 81bb
00000350: 99da 1e3c 7645 c4bb 98bc 3dba 0adb a93c
00000360: a6b6 fcbb acf4 28bc 7d50 173d bb4e 42bc
00000370: c516 4a3d c7d5 d0b9 701c 74bc 086d 8f3b
00000380: ccc0 1dbd 13dd 46bc 48c4 20bd 6259 9dbc
00000390: f66b b83b 4dfc 8abc 4a12 4dbc 39e2 ec3c
000003a0: 585b f4bb 83f4 a83c ff20 623c 3796 bf3c
000003b0: 8301 24bb f1a5 ea3c 3277 ca3b e9a0 893b
000003c0: 1489 debb 6b9a 06bd fb3a 633b 7c89 54ba
000003d0: 9bfd 81bc 10b4 c0bb edb7 eebb 9cd1 843c
000003e0: 0689 2ebb 1810 733c 0e87 02bd e109 38bc
000003f0: c864 2c3c a81c 66bc abed a33a 092f a13b

network_body._body_endoder.seq_layers.4.weight f4 [256, 256]
0.06365581 -0.041660167 0.05040412 -0.0917003 -0.027132146 -0.08654044 0.111427076 0.04662564
-0.13751458 -0.046809882 0.0630205 0.061384782 0.043454517 -0.01739043 -0.012366763 -0.027173672
0.0782741 0.07065154 -0.082545444 -0.041670885 0.068677016 -0.11205918 0.02241426 0.026325328
0.030062787 0.056563437 -0.091094956 -0.041682236 -0.13858321 0.0140579315 0.14679892 -0.07957649
0.047965094 0.020548346 -0.066080116 -0.07468498 -0.0467546 0.13518237 -0.014476199 0.026508115
-0.07000003 0.014313609 -0.0092947725 -0.0735632 -0.07296629 0.022504367 -0.085169144 -0.036031503
0.010005137 0.11898007 -0.016263524 -0.007679422 0.17280102 -0.018476445 0.03265089 0.21955083
0.0015204507 0.09874294 -0.016043408 0.068303 -0.029523138 0.06174904 0.036095977 -0.058134217
0.053254 0.052404188 -0.047588654 -0.05914013 0.08839096 -0.029307486 -0.01114478 -0.009622428
-0.025509773 -0.06673665 0.023690723 0.04192167 -0.058307223 -0.08720655 -0.028967692 -0.20791963
-0.060767155 0.039888702 0.056936145 -0.06697092 0.06331641 -0.12897842 -0.04113138 -0.053779565
0.023236794 0.055452336 0.004759767 -0.008517729 -0.04490513 -0.046359137 -0.07912753 -0.108515926
-0.0576651 -0.11969826 -0.11775694 -0.06429782 -0.035929877 0.015319938 0.028746756 -0.045170255
0.08037261 -0.023185497 0.11683058 0.033684827 0.05890293 -0.0109624285 -0.014581345 -0.07121103
-0.028177008 -0.020974178 0.05110652 -0.04255766 0.008411888 -0.17000099 -0.010571019 -0.119525075
-0.0145479385 -0.054644186 0.023404391 -0.05727722 -0.10210421 0.03462223 -0.103560284 -0.13211894
0.03062401 0.020131644 0.032146618 0.012130964 0.019893197 -0.019471552 -0.15061787 0.10760969
-0.03423393 -0.013068557 -0.007998239 -0.10386037 0.06857954 -0.067957565 -0.019431304 0.04239953
-0.041963354 -0.03704807 -0.048826613 0.0032990247 0.006747258 -0.01372404 -0.061200157 0.08793818
-0.021967383 -0.0017679195 -0.08592489 0.021928309 0.10040626 0.024590233 0.00265291 -0.029330248
-0.025535084 0.024391044 0.043558452 0.0017649933 0.006713829 0.0010809313 -0.11214377 -0.017462308
-0.035718054 -0.04845865 -0.04214738 -0.06850983 0.08055906 0.05356588 0.028415143 -0.10177394
0.093711026 -0.021803366 0.03727053 0.09246643 -0.05355245 -0.02269075 0.046577904 0.029042777
0.11787668 -0.04658328 0.003316424 0.09112051 0.1327363 -0.06574651 0.20605007 -0.14251962
0.04026682 -0.009256785 0.03374063 0.096852034 0.06208467 0.0066526094 -0.08456639 0.0023738719
-0.029931258 -0.06492605 0.06662543 -0.038132887 -0.05545366 -0.05369248 -0.016552454 0.12659773
0.03395111 0.037242696 0.035009462 -0.01927121 -0.033308487 -0.009776316 -0.09324348 0.017215153
-0.03291527 -0.06756212 0.0626794 0.02344557 0.038301416 0.03187841 -0.019655297 0.056688152
-0.0024306527 -0.09993236 -0.0018381323 0.017791083 -0.030955303 0.023595793 -0.015073603 0.21040267
0.09925291 -0.058529373 -0.039463177 0.037187327 0.008058045 -0.0047623077 -0.012664713 -0.02452747
-0.08294998 0.052743673 0.004281734 0.0005844639 0.0036672798 0.077394366 -0.015890554 0.02089349
-0.0801458 -0.10616395 -0.03311732 0.0020381324 -0.010018274 -0.10398807 -0.09089501 0.14401177
00000000: fa5d 823d daa3 2abd 8d74 4e3d 5ecd bbbd
00000010: 3c44 debc 1d3c b1bd e133 e43d 87fa 3e3d
00000020: 9fd0 0cbe b8bb 3fbd e410 813d 9c6e 7b3d
00000030: 5dfd 313d 6076 8ebc f79d 4abc 529b debc
00000040: 2c4e a03d c1b1 903d 960d a9bd 17af 2abd
00000050: 89a6 8c3d 497f e5bd 1c9e b73c 37a8 d73c
00000060: 3c46 f63c 10af 673d fe8f babd feba 2abd
00000070: c2e8 0dbe 3d53 663c 7552 163e 00f9 a2bd
00000080: 0c77 443d 0155 a83c 0355 87bd 70f4 98bd
00000090: c081 3fbd 3f6d 0a3e 942d 6dbc 8c27 d93c
000000a0: 2d5c 8fbd a183 6a3c 1a49 18bc 4ea8 96bd
000000b0: 5a6f 95bd 145b b83c 296d aebd c595 13bd
000000c0: 96ec 233c d3ab f33d 153b 85bc a9a3 fbbb
000000d0: c0f2 303e ea5b 97bc f1bc 053d efd1 603e
000000e0: dc49 c73a bd39 ca3d 776d 83bc 71e2 8b3d
000000f0: 82da f1bc 90ec 7c3d 60d9 133d 251e 6ebd
00000100: de20 5a3d c6a5 563d 52ec 42bd ec3c 72bd
00000110: 5206 b53d 4116 f0bc 9898 36bc 63a7 1dbc
00000120: dff9 d0bc 3aad 88bd 0c13 c23c 0fb6 2b3d
00000130: 8ed3 6ebd 5999 b2bd a74d edbc e2e8 54be
00000140: fbe6 78bd 5662 233d e035 693d 0d28 89bd
00000150: 09ac 813d eb12 04be 6179 28bd f647 5cbd
00000160: 175b be3c fd21 633d d2f7 9b3b f28d 0bbc
00000170: 71ee 37bd 14e3 3dbd 9d0d a2bd 993d debd
00000180: 3d32 6cbd 5d24 f5bd 8d2a f1bd 93ae 83bd
00000190: 352b 13bd 7a00 7b3c 517e eb3c 7204 39bd
000001a0: 659a a43d 83ef bdbc df44 ef3d 1af9 093d
000001b0: 3344 713d c29b 33bc 98e6 6ebc 17d7 91bd
000001c0: 78d3 e6bc 0ad2 abbc 1255 513d f150 2ebd
000001d0: 04d2 093c bd14 2ebe 1132 2dbc 90c9 f4bd
000001e0: 7a5a 6ebc 95d2 5fbd 91ba bf3c 859b 6abd
000001f0: 031c d1bd 0ad0 0d3d 6a17 d4bd 304a 07be
00000200: 34df fa3c 1eeb a43c 2cac 033d f3c0 463c
00000210: 0ff7 a23c ce82 9fbc 923b 1abe 7862 dc3d
00000220: e138 0cbd 801d 56bc 0c0b 03bc bfb4 d4bd
00000230: 6e73 8c3d 562d 8bbd 662e 9fbc 21ab 2d3d
00000240: c4e1 2bbd b8bf 17bd 6afe 47bd 7334 583b
00000250: 1a18 dd3b ccda 60bc 04ad 7abd ef18 b43d
00000260: f1f4 b3bc 89b9 e7ba 64f9 afbd ffa2 b33c
00000270: cca1 cd3d 7571 c93c 72dc 2d3b fd45 f0bc
00000280: f42e d1bc bacf c73c 596a 323d 5957 e73a
00000290: aeff db3b 09ae 8d3a a2ab e5bd 1d0d 8fbc
000002a0: 184d 12bd 947c 46bd bba2 2cbd e24e 8cbd
000002b0: 26fc a43d e567 5b3d e0c6 e83c db6e d0bd
000002c0: 91eb bf3d f99c b2bc fca8 183d 0a5f bd3d
000002d0: d059 5bbd f4e1 b9bc 79c8 3e3d 1eeb ed3c
000002e0: 5469 f13d 1cce 3ebd 5d58 593b 649d ba3d
000002f0: 06ec 073e 1ba6 86bd cafe 523e aaf0 11be
00000300: d2ee 243d c5a9 17bc 9d33 0a3d 5c5a c63d
00000310: 7f4c 7e3d 22fe d93b 2531 adbd f692 1b3b
00000320: 6632 f5bc f3f7 84bd ea72 883d 3b31 1cbd
00000330: 6123 63bd a5ec 5bbd 0399 87bc d6a2 013e
00000340: 5210 0b3d cc8b 183d 1566 0f3d a8de 9dbc
00000350: 7b6e 08bd d72c 20bc 70f6 bebd cb06 8d3c
00000360: 2ad2 06bd 025e 8abd 0f5e 803d ed10 c03c
00000370: f2e1 1c3d f092 023d 2504 a1bc d631 683d
00000380: 964b 1fbb 56a9 ccbd 7ced f0ba 9bbe 913c
00000390: fa95 fdbc f74b c13c 46f7 76bc cc73 573e
000003a0: 1c45 cb3d 7fbc 6fbd 24a4 21bd bd51 183d
000003b0: e405 043c 220d 9cbb a87f 4fbc d5ed c8bc
000003c0: aee1 a9bd c009 583d ca4d 8c3b b536 193a
000003d0: bf56 703b f080 9e3d e82c 82bc d328 ab3c
000003e0: 7b23 a4bd 7c6c d9bd 07a6 07bd 3092 053b
000003f0: b023 24bc b2f7 d4bd 2a27 babd d277 133e

network_body._body_endoder.seq_layers.4.bias f4 [256]
0.018178431 0.0015704581 0.008168001 -0.017015848 0.022699956 0.018913032 0.0073062666 0.035984825
0.022185462 -0.0010430315 0.0062326654 0.011709666 0.023818305 0.0077188336 0.012496234 0.0024440053
0.015219514 0.015882533 0.007333712 0.003710779 0.022398425 0.01740848 0.0023632876 0.0076947394
0.026580475 -0.008083183 0.0033991365 0.01637078 0.013106593 0.009846217 0.030061614 -0.006959048
-0.00763492 0.007206916 0.008935683 -0.019727128 -0.0030542396 0.02794472 0.0065288013 0.021002287
0.02266941 0.014638972 -0.00024203959 0.03142317 -0.006376203 0.0375373 0.0177862 0.010808559
0.02602876 0.009853648 0.014281258 0.010046371 -0.0018255748 0.0057863165 0.017433463 0.02737079
0.011909713 0.020520497 0.011689588 0.008792097 3.1119234e-05 0.016533302 0.0059195883 0.023522357
-0.0046873484 -7.6190314e-05 0.02001589 0.0054033576 0.018719511 0.012632277 0.008595267 0.0077634286
0.0032410056 0.02213607 0.017253628 0.023561725 0.008203255 -0.006029286 0.003747505 -0.0074983006
0.006188653 -0.015412428 0.012436086 0.0078121 0.02589108 -0.006580199 0.0121624945 -0.00020675414
0.021034388 0.0040845075 -0.0039556054 -0.0019470925 0.002229311 -0.0015389047 0.0011298808 0.0058687977
0.006108827 -0.011487514 -0.0042849444 0.008713703 -0.0016055602 0.00056451076 0.005395223 -0.0046537137
0.0042388644 0.010989329 0.0064010797 -0.0104133645 0.002251454 0.03497223 0.006782808 0.027574167
-0.010863888 0.015140052 -0.023202538 0.016616646 0.0026768974 -0.02412331 0.011085905 0.01444501
-0.02436297 0.010953389 0.012109971 0.017190006 0.016931131 0.008209111 0.0063662017 0.0116503835
0.017123573 -0.0038885346 -0.0026440436 0.014918884 0.016717384 -0.005855959 0.0040019555 0.0309677
0.014859719 0.011047933 0.017711237 -0.015468173 0.01830558 0.007114494 0.01227989 0.02085774
0.0057146754 0.012689322 0.016555091 -0.013364094 0.0061129094 0.015040564 0.026594361 0.009430293
0.0149355605 -0.0041534696 0.0231992 0.018665759 0.013722368 0.016173018 0.018728457 0.010505707
0.012179953 0.0031717967 -0.0012259344 0.01959803 0.017018866 0.011099815 0.02198066 -0.015657164
0.010112922 0.010220547 0.0128759 -0.025276195 0.0029562404 0.041415907 0.019013355 0.006762478
0.0230445 0.012261644 0.013400299 0.03385008 -0.026245343 -0.015394475 0.00015604241 0.015411872
0.013761694 -0.0027102544 0.031812508 0.028132265 -0.0028102398 0.00088396156 0.011460796 0.021635698
0.012770805 0.001602335 0.0064457445 0.018059777 0.036207274 0.013886524 0.0035741704 0.010294784
0.0028349548 0.0103591755 0.008884765 0.010401182 0.01807401 -8.3977575e-05 0.025425166 0.008305214
0.010949502 0.010024876 0.009992447 0.0049181874 0.002940552 -0.0018850206 0.017621512 0.024637923
0.0066842623 -0.0056013963 0.009167953 0.0015239839 -0.00052301673 0.01777086 0.023095665 0.027748065
0.004864277 -0.003717199 0.0013670673 0.024535656 0.022746796 0.031041421 0.0013512344 0.011995997
-0.005898259 0.0064610327 0.011079858 0.01884854 0.0055999313 0.019792473 -0.0028727832 0.012041713
0.02943366 0.0165291 0.022807982 0.03244003 0.021682741 0.024990512 0.023264457 0.023248985
0.027407957 0.0016724584 -0.0035870017 0.018342318 0.01409897 -0.01885382 0.018225377 0.025564168
00000000: efea 943c d4d7 cd3a 14d3 053c d264 8bbc
00000010: 42f5 b93c 81ef 9a3c 6869 ef3b d364 133d
00000020: 49be b53c 54b6 88ba 633b cc3b e6d9 3f3c
00000030: 9b1e c33c 45ee fc3b 01bd 4c3c 9b2b 203b
00000040: 455b 793c 161c 823c a34f f03b 8a30 733b
00000050: e77c b73c 3b9c 8e3c 63e1 1a3b 2724 fc3b
00000060: 4cbf d93c 546f 04bc 0cc4 5e3b 041c 863c
00000070: 09bd 563c 0752 213c c643 f63c ba08 e4bb
00000080: 5a2e fabb fe27 ec3b f966 123c c99a a1bc
00000090: a329 48bb 53ec e43c 8eef d53b fd0c ac3c
000000a0: 33b5 b93c 4cd8 6f3c 02cc 7db9 95b5 003d
000000b0: 78ef d0bb b6c0 193d 5db4 913c 6216 313c
000000c0: 443a d53c 3271 213c f0fb 693c 8999 243c
000000d0: 2048 efba 249b bd3b 9fd0 8e3c b538 e03c
000000e0: f520 433c 9a1a a83c b085 3f3c ba0c 103c
000000f0: 0686 0238 d970 873c 1bf9 c13b f5b1 c03c
00000100: 5498 99bb 5dc8 9fb8 5df8 a33c a60e b13b
00000110: a959 993c 9cf7 4e3c 2ad3 0c3c 5c64 fe3b
00000120: 0d67 543b b456 b53c 7b57 8d3c 8504 c13c
00000130: f266 063c 5191 c5bb b398 753b 4eb4 f5bb
00000140: 2fca ca3b 6984 7cbc bac0 4b3c a5fc ff3b
00000150: 8819 d43c b69e d7bb 3345 473c 24cc 58b9
00000160: 4f50 ac3c 55d7 853b 069e 81bb 9535 ffba
00000170: a219 123b 13b5 c9ba 8218 943a 0b4f c03b
00000180: 8e2c c83b 2036 3cbc b868 8cbb ebc3 0e3c
00000190: a971 d2ba adfb 133a 69ca b03b 2e7e 98bb
000001a0: 2ce6 8a3b 960c 343c 26c0 d13b d19c 2abc
000001b0: 218d 133b 0b3f 0f3d 5142 de3b 38e3 e13c
000001c0: 73fe 31bc fb0d 783c 4013 bebc a21f 883c
000001d0: e36e 2f3b 3f9e c5bc a8a1 353c c3aa 6c3c
000001e0: da94 c7bc d875 333c e668 463c 0ed2 8c3c
000001f0: 28b3 8a3c 827f 063c 929b d03b 40e1 3e3c
00000200: bc46 8c3c c9d6 7ebb b147 2dbb 566e 743c
00000210: e5f2 883c 58e3 bfbb d622 833b f9af fd3c
00000220: 2e76 733c 6402 353c 2817 913c 386e 7dbc
00000230: 95f5 953c b420 e93b 9731 493c dadd aa3c
00000240: 2c42 bb3b e0e6 4f3c 8b9e 873c 13f5 5abc
00000250: cd4e c83b b36c 763c 6bdc d93c 8481 1a3c
00000260: 48b4 743c d419 88bb 400c be3c efe8 983c
00000270: c8d3 603c 477d 843c 6c6c 993c 2120 2c3c
00000280: 6d8e 473c ebdd 4f3b 88af a0ba 0c8c a03c
00000290: 266b 8b3c 00dc 353c c910 b43c 7443 80bc
000002a0: abb0 253c 1574 273c 70f5 523c 0610 cfbc
000002b0: 7cbd 413b baa3 293d e5c1 9b3c c797 dd3b
000002c0: d2c7 bc3c 10e5 483c ed8c 5b3c 62a6 0a3d
000002d0: 7900 d7bc 1c39 7cbc 519f 2339 1482 7c3c
000002e0: ba78 613c 869e 31bb d54d 023d a375 e63c
000002f0: 002c 38bb a8b9 673a 10c6 3b3c 593d b13c
00000300: a33c 513c 7105 d23a d336 d33b 19f2 933c
00000310: 144e 143d 4e84 633c a13c 6a3b 74ab 283c
00000320: a6ca 393b 88b9 293c 6891 113c b869 2a3c
00000330: f20f 943c 1e1d b0b8 7048 d03c 9812 083c
00000340: 8a65 333c 613f 243c 5cb7 233c bf28 a13b
00000350: 47b6 403b cc12 f7ba fd5a 903c 78d5 c93c
00000360: a807 db3b eb8b b7bb 2f35 163c 6ac0 c73a
00000370: 0f1b 09ba 3294 913c 1f33 bd3c e94f e33c
00000380: 8364 9f3b 409c 73bb 2b2f b33a 00ff c83c
00000390: 7d57 ba3c 944a fe3c e71b b13a dc8a 443c
000003a0: 2f46 c1bb 12b7 d33b 4b88 353c 4168 9a3c
000003b0: a17f b73b d323 a23c 4e45 3cbb 9b4a 453c
000003c0: dc1e f13c 0968 873c ced7 ba3c d6df 043d
000003d0: 01a0 b13c e7b8 cc3c 1a95 be3c a874 be3c
000003e0: a786 e03c 6436 db3a e713 6bbb a142 963c
000003f0: 5eff 663c 5473 9abc 634d 953c f26b d13c

action_model._continuous_distribution.log_sigma f4 [1, 3]
-0.16712904 -0.12848918 0.1932139
00000000: e023 2bbe ab92 03be ddd9 453e

action_model._continuous_distribution.mu.weight f4 [3, 256]
-0.06797632 -0.036636747 0.039994005 0.0020571991 0.0035118444 0.0007156147 -0.024638599 0.047783855
0.026113389 -0.03411795 -0.024902062 0.042647988 0.049809787 -0.06415859 -0.010780208 0.036831003
0.0045584077 0.05843582 -0.036068063 0.02869908 -0.017141176 0.03979629 0.003403696 0.004945967
-0.06022207 -0.044522904 -0.03428892 0.055333424 -0.06308844 -0.02790712 0.035769153 0.04560845
-0.00477891 -0.053929515 -0.058235914 -0.0058266115 0.009578641 0.054754578 -0.051591706 0.045436475
0.050189618 -0.0080937985 -0.06200051 -0.084290035 -0.0044846362 -0.087436065 -0.0048405654 0.048709944
-0.028462902 -0.03591999 0.055531777 0.016188435 -0.02877238 0.016202636 -0.037437856 0.071045846
0.047487393 -0.030357908 0.03378089 -0.0087930225 -0.027949264 0.028029142 0.039914355 0.055315543
-0.06310716 0.013590164 0.033140447 -0.0068414635 -0.04553337 -0.07034142 0.042950507 -0.047685545
0.03349052 0.027711201 -0.073599644 0.0013905978 -0.02317628 -0.034011714 0.009175388 -0.019349875
-0.026990334 0.031352486 -0.065863915 -0.041025657 0.059779614 0.004117938 -0.07552022 -0.05295893
0.013588856 -0.040827442 -0.017924637 -0.0648073 -0.024469014 -0.031074315 -0.04354592 0.04775981
0.030944232 -0.024738282 -0.005080158 -0.00039825804 0.0028691932 -0.032478727 0.027265348 -0.020418676
-0.04102993 -0.030696852 -0.04206794 0.015643723 -0.021914154 0.019198116 -0.06772151 0.07825154
0.04688301 -0.05367736 0.0021440673 -0.0666968 0.0007782981 0.015854161 0.04371914 0.03449368
0.0230944 0.05227801 0.034631453 -0.039344877 -0.024734395 -0.07431851 0.012480228 -0.032100912
0.057972033 0.030332267 0.02986862 -0.060048856 0.025655583 -0.040010966 0.0027881328 0.019302217
-0.017868275 -0.024502989 -0.073355086 -0.025111606 0.01162226 0.029285287 -0.008105257 -0.08037869
-0.022205906 0.05754585 0.0036734845 0.028463436 0.012769927 -0.042665806 0.04173366 0.0056911167
0.0064385645 0.042073302 0.029444994 0.0060398676 0.02363234 -0.030644873 -0.037919655 -0.053179678
0.06081129 -0.026948791 -0.015657991 0.054064717 0.035119083 0.006834069 0.020886928 0.0059116213
-0.00957793 -0.019127993 -0.0817464 -0.040259253 0.015016584 0.048306845 -0.039191645 -0.038714338
0.044017617 -0.045384705 0.050621253 0.034770768 -0.020638937 0.015623634 -0.031313196 0.039192874
0.017221585 -0.052545775 -0.08576946 -0.0771283 0.02214711 -0.04994025 -0.05872913 -0.047433812
0.04548279 -0.019966371 -0.022122188 -0.055209793 0.08768299 -0.048569743 -0.039341662 0.04968778
-0.024594897 -0.035456404 0.0132750515 -0.027194647 0.056102913 -0.05360817 -5.8358157e-05 0.041415755
0.05948099 -0.015808618 -0.04510725 0.037586037 -0.03469458 0.019045528 0.05242314 0.023570742
-0.06570566 0.017559974 0.045735702 0.019432055 0.051178694 -0.0035200466 0.04349247 0.019345505
0.04044562 -0.050193146 0.020665523 -0.0717644 -0.070272185 0.06781984 -0.02744826 -0.050461512
-0.031338934 -0.008121965 -0.004114189 0.025967766 0.01899193 -0.021314353 0.02103896 -0.013561896
-0.08645999 0.028803276 0.050877288 0.078850746 -0.061398383 0.04711651 0.071339026 0.06398466
0.027277295 -0.03333142 0.02686142 0.03483703 0.06697845 0.0014563337 0.016961947 0.038160995
00000000: 2b37 8bbd 6a10 16bd c1d0 233d 13d2 063b
00000010: f926 663b 1798 3b3a e3d6 c9bc 01b9 433d
00000020: bfeb d53c 43bf 0bbd 69ff cbbc a8af 2e3d
00000030: 5905 4c3d 9465 83bd 789f 30bc 1bdc 163d
00000040: b25e 953b 665a 6f3d 1bbc 13bd 551a eb3c
00000050: a76b 8cbc 6f01 233d 8b10 5f3b c711 a23b
00000060: 6bab 76bd a65d 36bd 8a72 0cbd 4da5 623d
00000070: 8334 81bd 799d e4bc ad82 123d edcf 3a3d
00000080: 6798 9cbb 32e5 5cbd c888 6ebd 29ed bebb
00000090: bbef 1c3c 5646 603d d351 53bd 991b 3a3d
000000a0: a193 4d3d da9b 04bc 3ff4 7dbd 41a0 acbd
000000b0: dbf3 92bb ae11 b3bd 9b9d 9ebb 1484 473d
000000c0: 082b e9bc d720 13bd 4a75 633d 9c9d 843c
000000d0: 0eb4 ebbc 64bb 843c 7058 19bd 7c80 913d
000000e0: 2482 423d 26b1 f8bc d55d 0a3d 9c10 10bc
000000f0: dbf5 e4bc 5f9d e53c 3c7d 233d 8d92 623d
00000100: 543e 81bd 47a9 5e3c 47be 073d 5b2e e0bb
00000110: 3381 3abd 2a0f 90bd dfec 2f3d eb51 43bd
00000120: 5b2d 093d 9a02 e33c 69bb 96bd b844 b63a
00000130: 2fdc bdbc de4f 0bbd 5e54 163c a183 9ebc
00000140: d51a ddbc 776b 003d a9e3 86bd 850a 28bd
00000150: 78db 743d c5ef 863b 58aa 9abd 77eb 58bd
00000160: cba3 5e3c ad3a 27bd b0d6 92bc b1b9 84bd
00000170: 3e73 c8bc 908f febc 355d 32bd ca9f 433d
00000180: c27e fd3c f0a7 cabc 7477 a6bb 4acd d0b9
00000190: 1309 3c3b 6a08 05bd 945b df3c 1145 a7bc
000001a0: 000f 28bd f777 fbbc 6f4f 2cbd 4427 803c
000001b0: 5085 b3bc 5e45 9d3c 93b1 8abd 5842 a03d
000001c0: 6608 403d cbdc 5bbd 7b83 0c3b 5598 88bd
000001d0: b406 4c3a 96e0 813c d712 333d 3f49 0d3d
000001e0: 7830 bd3c 7721 563d b6d9 0d3d 1828 21bd
000001f0: c99f cabc 4e34 98bd df79 4c3c 3f7c 03bd
00000200: 1574 6d3d 607b f83c 09af f43c caf5 75bd
00000210: a82b d23c 8ae2 23bd 1bb9 363b af1f 9e3c
00000220: 7d60 92bc 7eba c8bc 313b 96bd dbb6 cdbc
00000230: 4b6b 3e3c b3e7 ef3c e9cb 04bc 959d a4bd
00000240: 29e9 b5bc 32b5 6b3d d8be 703b 272c e93c
00000250: f538 513c 57c2 2ebd eaf0 2a3d 8c7c ba3b
00000260: 98fa d23b 0e55 2c3d a136 f13c 15ea c53b
00000270: 9c98 c13c f50a fbbc a451 1bbd efd2 59bd
00000280: 4215 793d b6c3 dcbc 3045 80bc f772 5d3d
00000290: 07d9 0f3d 53f0 df3b 101b ab3c 46b6 c13b
000002a0: c0ec 1cbc 4fb2 9cbc a86a a7bd e3e6 24bd
000002b0: 1e08 763c 66dd 453d 6b87 20bd ed92 1ebd
000002c0: d14b 343d 50e5 39bd 3b58 4f3d cb6b 0e3d
000002d0: fd12 a9bc 45fa 7f3c 4442 00bd b588 203d
000002e0: 4814 8d3c 3d3a 57bd e6a7 afbd 71f5 9dbd
000002f0: db6d b53c 268e 4cbd f58d 70bd f549 42bd
00000300: 294c 3a3d 8490 a3bc 9739 b5bc aa23 62bd
00000310: 2493 b33d 11f1 46bd b924 21bd 6a85 4b3d
00000320: 3d7b c9bc bc3a 11bd 9a7f 593c 4fc7 debc
00000330: 2bcc 653d 3e94 5bbd 98c5 74b8 91a3 293d
00000340: 57a2 733d 1381 81bc 61c2 38bd d1f3 193d
00000350: e71b 0ebd 5e05 9c3c a5b9 563d 6e17 c13c
00000360: b090 86bd efd9 8f3c 5c55 3b3d f92f 9f3c
00000370: c0a0 513d 95b0 66bb 2925 323d 777a 9e3c
00000380: 4eaa 253d 5497 4dbd be4a a93c 37f9 92bd
00000390: ddea 8fbd 21e5 8a3d 2cdb e0bc bbb0 4ebd
000003a0: 415d 00bd fe11 05bc 52d0 86bb 5aba d43c
000003b0: f794 9b3c 709b aebc e659 ac3c b732 5ebc
000003c0: ef11 b1bd d9f4 eb3c b464 503d 807c a13d
000003d0: df7c 7bbd 3efd 403d 321a 923d 640a 833d
000003e0: a274 df3c 8786 08bd 7b0c dc3c 46b1 0e3d
000003f0: ff2b 893d 73e2 be3a c8f3 8a3c b44e 1c3d

action_model._continuous_distribution.mu.bias f4 [3]
0.0045603495 0.0029325096 -0.020472715
00000000: fc6e 953b 592f 403b 65b6 a7bc
